weights.pt (torch, 34016 bytes, 38 tensors)

conv1.weight f4 [8, 1, 5, 5]
0	0xbea61207	-0.3243563
1	0xbd68652e	-0.056737117
2	0x3c17fe6f	0.00927697
3	0xbe52d3aa	-0.20588556
4	0xbd23a001	-0.039947513
5	0xbec66bd8	-0.38754153
6	0xbe60104c	-0.21881217
7	0xbeb8b646	-0.36076564
8	0x3d3acbc2	0.045604475
9	0x3eb5b191	0.35487035
10	0xbe87c517	-0.26517555
11	0x3ee50249	0.44728306
12	0x3dc5a3a8	0.096503556
13	0xbe498d80	-0.19682884
14	0xbe8afecf	-0.2714753
15	0xbd35d872	-0.04439587
16	0x3e4b0662	0.19826654
17	0x3eb2027b	0.34767517
18	0xbdc69ef4	-0.09698287
19	0xbdd376f3	-0.10325422
20	0x3ea2c03f	0.31787297
21	0xbba2b4a6	-0.0049653826
22	0xbcf43571	-0.02981064
23	0x3f14d38a	0.58135283
24	0xbecf81fd	-0.4052886
25	0xbe5f1fc3	-0.2178946
26	0xbe1c64fc	-0.15272897
27	0x3ef11428	0.4708569
28	0x3e18ec7f	0.14933966
29	0x3ce14846	0.027500283
30	0x3f307ef1	0.689437
31	0xbe370f16	-0.17876849
32	0x3f289b11	0.6586161
33	0x3dc4a45b	0.09601661
34	0x3d8221b7	0.06354087
35	0xbd970507	-0.07374006
36	0x3dcc8395	0.09986035
37	0xbde1d80f	-0.11027538
38	0x3eab8514	0.33499968
39	0x3e533eb4	0.20629388
40	0xbf11fad3	-0.5702335
41	0x3ea192ba	0.31557256
42	0xbe31d9e5	-0.17368276
43	0xbdafdbd8	-0.08586854
44	0xbe3f3403	-0.18672185
45	0xbc864b76	-0.016393404
46	0x3ec4cec1	0.3843899
47	0xbd1f98be	-0.038964026
48	0x3e40f4b0	0.18843341
49	0xbe6233d0	-0.22090077
50	0xbed77f68	-0.4208939
51	0xbf02a536	-0.5103334
52	0xbe5542d1	-0.2082627
53	0x3eb9fd59	0.363261
54	0xbe1bddc0	-0.1522131
55	0xbd6d41da	-0.05792413
56	0xbe8c3652	-0.27385193
57	0x3f03d558	0.5149741
58	0x3eb6200b	0.35571322
59	0xbc6069ba	-0.013697082
60	0x3d879856	0.06620853
61	0xbeedd8cd	-0.46454468
62	0xbea6657b	-0.32499298
63	0x3c400d42	0.011721911
64	0xbe42559a	-0.18977967
65	0x3edff421	0.43740943
66	0x3dbe6dd4	0.09298292
67	0xbe14916d	-0.145086
68	0x3d92cd20	0.07168031
69	0x3ece4e32	0.40294033
70	0x3dc715b6	0.09720938
71	0xbdb150fb	-0.08658024
72	0x3d810242	0.06299259
73	0xbdf23c11	-0.11827863
74	0x3dc98956	0.09840648
75	0x3d44e497	0.048069563
76	0xbe6d10b7	-0.23150907
77	0xbea8607f	-0.3288612
78	0x3dc00cb0	0.0937742
79	0x3e077fbe	0.13232324
80	0x3d2c73ad	0.042102505
81	0xbd8ef07f	-0.06979465
82	0xbf2ae12a	-0.66749823
83	0x3ea2b918	0.3178184
84	0xbd25f2da	-0.040514804
85	0x3e15bc94	0.14622718
86	0xbec7e6c7	-0.39043257
87	0x3e107713	0.14107923
88	0xbe308680	-0.17238808
89	0xbe3dc76e	-0.18533108
90	0xbd4a364e	-0.049368195
91	0x3e9a242d	0.30105725
92	0xbda39441	-0.079872616
93	0x3e903475	0.28165022
94	0x3e9539b1	0.29145578
95	0xbea5a3fc	-0.32351673
96	0x3f1b5310	0.6067362
97	0xbdc91bc3	-0.09819748
98	0x3d5674cf	0.05235749
99	0x3d26934c	0.040667817
100	0xbf10f22a	-0.56619513
101	0x3e03690b	0.1283304
102	0xbe44e723	-0.19228797
103	0xbe8a9acf	-0.27071235
104	0x3e263c5a	0.1623396
105	0xbe4d55bc	-0.20052236
106	0x3d5d7da0	0.054074883
107	0xbddbe61c	-0.10737249
108	0xbe6026b2	-0.21889761
109	0x3d466fe5	0.048446555
110	0xbe2e3e13	-0.17015867
111	0xbee4b81e	-0.4467172
112	0x3d3e26a7	0.04642358
113	0xbe8fdc1d	-0.2809762
114	0x3dcd0daf	0.100123756
115	0xbdb6e81b	-0.08930989
116	0xbdc29f9d	-0.095031
117	0x3d0590b2	0.032608695
118	0xbc3d85dc	-0.011567559
119	0x3e56d03d	0.20977874
120	0x3dd772f2	0.10519971
121	0x3dc1ebfa	0.09468837
122	0xbe3ba933	-0.18326263
123	0xbc3d1e92	-0.011542933
124	0xbe05c8c8	-0.13064873
125	0x3dc2712b	0.09494241
126	0xbe8b5aa6	-0.27217597
127	0x3cdfb698	0.027308747
128	0xbe2fa2e4	-0.17151982
129	0xbe0e7f4d	-0.13915749
130	0xbdfa79b5	-0.12230245
131	0xbe952cfe	-0.2913589
132	0x3e8a662a	0.2703107
133	0xbe0b9f4a	-0.13634983
134	0x3ed6f422	0.41983134
135	0xbbe96bf5	-0.007123465
136	0x3f44b5d6	0.7683996
137	0xbef8d3ac	-0.48598993
138	0x3e8dedae	0.27720398
139	0xbe8026f6	-0.25029725
140	0x3ea0cdff	0.31407163
141	0xbeb43b61	-0.35201553
142	0x3e90e697	0.28300926
143	0xbeed8fd6	-0.463988
144	0x3ed3d4e6	0.41373366
145	0xbe8183a0	-0.25295734
146	0x3d57d596	0.052693926
147	0xbe848fd5	-0.25890985
148	0x3e8310f2	0.25598866
149	0x3d21626b	0.0394005
150	0x3f5a1473	0.85187453
151	0xbd85aa86	-0.065266654
152	0xbdf65cc9	-0.12029416
153	0xbe4645a5	-0.19362505
154	0xbe16cbc1	-0.14726163
155	0x3ea57691	0.3231702
156	0x3e15ee22	0.14641622
157	0xbddb2594	-0.10700527
158	0x3edb980b	0.42889437
159	0xbf552083	-0.83252734
160	0x3dd2f2c5	0.10300211
161	0xbdba760b	-0.09104546
162	0xbe6d00c1	-0.23144819
163	0xbf2152c2	-0.63016903
164	0xbec08394	-0.37600386
165	0x3d7f5ca1	0.062344197
166	0xbd7f64c4	-0.062351957
167	0xbdcc2800	-0.09968567
168	0xbcd31cc3	-0.02577055
169	0xbef9daeb	-0.48799834
170	0xbdbba6b9	-0.09162659
171	0x3dba1302	0.09085657
172	0x3d9bca17	0.07606905
173	0x3ebe0b78	0.37118125
174	0x3d2afb2e	0.04174345
175	0xbdf64426	-0.12024717
176	0xbe5c6c17	-0.21525608
177	0xbe8c39c3	-0.2738782
178	0x3ee5d0b6	0.44885796
179	0xbf0ab16d	-0.5417698
180	0xbe16a981	-0.14713098
181	0xbce18d39	-0.02753316
182	0x3c37aa83	0.011210087
183	0xbec04cdc	-0.3755864
184	0xbf00dbda	-0.50335467
185	0xbe79ed38	-0.24406898
186	0x3e0c07f3	0.13674907
187	0xbdd499d7	-0.10380905
188	0x3ea2f6fe	0.31829065
189	0xbe8ca25e	-0.27467626
190	0xbd25d90d	-0.0404902
191	0xbcf43bab	-0.029813608
192	0x3ecfb228	0.4056561
193	0x3e950269	0.291034
194	0xbe9124c3	-0.2834836
195	0x3e8807bc	0.265684
196	0x3e438de5	0.19097097
197	0x3d6f8129	0.058472786
198	0xbe486518	-0.19569814
199	0x3e03639c	0.12830967

conv1.bias f4 [8]
0	0xbc847462	-0.016168777
1	0x3c01a592	0.00791301
2	0x3af756de	0.0018870493
3	0x3cade9c5	0.021229634
4	0xbc9f77f5	-0.01946638
5	0x3c48e976	0.012262693
6	0x3cef23cc	0.029191874
7	0xbd2bee30	-0.0419752

bn1.weight f4 [8]
0	0x3f8052bc	1.0025249
1	0x3f80d83f	1.0065993
2	0x3f7d6f5e	0.9899806
3	0x3f796e55	0.9743398
4	0x3f81c6b7	1.0138768
5	0x3f7e6d28	0.9938531
6	0x3f811fe6	1.008786
7	0x3f8073a3	1.003529

bn1.bias f4 [8]
0	0xbaae0fbb	-0.0013279835
1	0x3cbb1cf5	0.022840956
2	0x3a61a39c	0.00086074485
3	0x3caeb927	0.021328522
4	0x3cafbcc6	0.021452319
5	0x3cd3da42	0.02586091
6	0xbd18b816	-0.037284933
7	0x3d38a268	0.045076758

bn1.running_mean f4 [8]
0	0x3e9ca7df	0.30596825
1	0x3f28164e	0.65659034
2	0x3e8a0d81	0.26963428
3	0x3e683d52	0.22679642
4	0x3f3ac4bb	0.72956437
5	0x3e017a86	0.12644395
6	0x3f14081a	0.5782486
7	0x3ee8ba8f	0.45454833

bn1.running_var f4 [8]
0	0x3e3940ab	0.18091075
1	0x3f70142c	0.9378078
2	0x3e16099b	0.14652102
3	0x3de75520	0.11295533
4	0x3f901cbd	1.125877
5	0x3d2197fd	0.039451588
6	0x3f230aab	0.63688153
7	0x3ede09c6	0.43366832

conv2.weight f4 [16, 8, 3, 3]
0	0xbda16fb8	-0.07882637
1	0xbce75dad	-0.02824291
2	0xbdcc5d6c	-0.09978756
3	0xbe658234	-0.2241295
4	0x3e02d90f	0.12778114
5	0xbdbaebc1	-0.09126998
6	0xbd50556f	-0.050862726
7	0xbeaff2b6	-0.3436486
8	0x3da2af31	0.07943571
9	0x3e447227	0.1918417
10	0x3e864279	0.2622259
11	0x3c832f17	0.016013665
12	0x3d3b65b8	0.045751303
13	0xbbbfb346	-0.0058502285
14	0xbb9de229	-0.00481822
15	0x3e4e0ae7	0.20121346
16	0xbe1bca33	-0.15213852
17	0x3d3e0ff7	0.046401944
18	0x3e4795c1	0.1949072
19	0x3da9c6c5	0.082898654
20	0x3da6ee4a	0.08150919
21	0x3e0e02ae	0.1386821
22	0x3e00ed41	0.12590505
23	0xbe974514	-0.2954489
24	0x3e321684	0.17391402
25	0xbd756bd1	-0.059917275
26	0x3b7ac78a	0.0038265907
27	0x3d7eb033	0.062179755
28	0x3e64b15c	0.22333282
29	0xbc7c6553	-0.015405017
30	0xbdaa2229	-0.08307297
31	0xbd52f9f9	-0.051507924
32	0x3eac0fd4	0.33605826
33	0x3e142797	0.14468227
34	0x3d88e32d	0.06683955
35	0xbe432e4b	-0.19060628
36	0x3deb63fe	0.11493681
37	0x3dc9a695	0.09846226
38	0x3e832747	0.25615904
39	0x3e84bccc	0.2592529
40	0xbc61c19e	-0.013779072
41	0xbe0a8236	-0.13526234
42	0x3e0565e8	0.13027155
43	0xbd8f7e71	-0.07006539
44	0xbbcd07d1	-0.0062570353
45	0xbd64288e	-0.05570274
46	0x3b8ac523	0.0042349263
47	0xbdb19930	-0.08671796
48	0x3e5dd495	0.21663125
49	0xbeb58e6e	-0.35460228
50	0x3d7392bd	0.059466112
51	0xbe785f03	-0.24254994
52	0x3e1ecd2f	0.15507959
53	0xbde5a13f	-0.11212396
54	0xbdfc938d	-0.123328306
55	0xbe92aff2	-0.2864986
56	0xbdb5ed80	-0.0888319
57	0xbcc989b5	-0.024601797
58	0xbe10b69a	-0.14132157
59	0x3e34f935	0.1767319
60	0x3cce9d16	0.025221389
61	0xbe45c12c	-0.1931197
62	0x3e270919	0.16312064
63	0x3d0721fe	0.0329914
64	0xbe7f4c9e	-0.24931571
65	0x3e9db84d	0.30804673
66	0x3e04985d	0.12948747
67	0xbeb0f2ee	-0.3456034
68	0x3e63a741	0.22231771
69	0x3de11a85	0.10991386
70	0xbe7108dc	-0.23538536
71	0x3d9eb367	0.07749062
72	0x3e901e22	0.2814799
73	0x3e68c746	0.22732267
74	0x3ec7457e	0.38920206
75	0x3e727897	0.23678814
76	0xbe97a66f	-0.29619166
77	0x3e18c620	0.14919329
78	0xbe134be7	-0.14384423
79	0x3dd3d960	0.10344195
80	0x3e8e77dc	0.2782582
81	0xbdd7e259	-0.10541219
82	0x3d5d071e	0.053961866
83	0x3dd50bed	0.10402665
84	0xbe2ab688	-0.16671193
85	0x3ebb0f60	0.36535168
86	0xbd86f12b	-0.06588968
87	0xbd96d37f	-0.073645584
88	0xbe9b1bbb	-0.30294594
89	0x3e3a6180	0.18201256
90	0xbea39838	-0.3195207
91	0x3ea4af36	0.32164925
92	0xbe6ef6c6	-0.23336324
93	0xbc070a22	-0.008242162
94	0xbe7947be	-0.24343774
95	0x3ea67c98	0.32516932
96	0x3e7b89a1	0.2456422
97	0x3e522aa7	0.20524083
98	0x3e39adcc	0.18132704
99	0xbe2d04d4	-0.16896373
100	0xbe3d291f	-0.18472718
101	0xba028747	-0.00049792643
102	0x3cf56ce4	0.02995915
103	0x3e50ec94	0.20402747
104	0x3e6ad65b	0.22933333
105	0x3e636315	0.22205766
106	0x3eb79856	0.3585841
107	0x3d96c95e	0.073626265
108	0xbeb7923f	-0.35853764
109	0x3e89d268	0.2691834
110	0xbd93b5e1	-0.07212425
111	0x3d98e7c5	0.074660815
112	0xbd80baaa	-0.06285603
113	0xbd2a5d7e	-0.041593067
114	0x3da40774	0.08009234
115	0x3de3ae00	0.11117172
116	0xbe5c95ec	-0.21541566
117	0x3c72795c	0.014799442
118	0x3e0f1f16	0.13976702
119	0xbe0ea708	-0.13930905
120	0x3dc66085	0.096863784
121	0xbc937ce4	-0.018003888
122	0x3dd3cbea	0.10341628
123	0xbd80b5b1	-0.06284655
124	0xbd5156cf	-0.051108178
125	0x3dca41f9	0.098758645
126	0x3e910491	0.28323796
127	0xbe6c148e	-0.23054716
128	0xbd8c0def	-0.06838595
129	0xbe04b2a9	-0.12958778
130	0xbeb5941e	-0.35464567
131	0x3d7e2485	0.062046546
132	0xbd261195	-0.04054411
133	0xbe219a19	-0.1578144
134	0xbe50ec34	-0.20402604
135	0xbea435bc	-0.32072246
136	0x3e85ab5e	0.26107305
137	0x3e64c763	0.22341685
138	0x3e88e6f3	0.267387
139	0xbe855335	-0.26040044
140	0x3d00a0a4	0.0314032
141	0xbe1f043e	-0.15528962
142	0xbd9e5614	-0.07731262
143	0xbe0d0ea9	-0.13775124
144	0x3cd5cd46	0.026098859
145	0x3de6b754	0.11265436
146	0x3d45404c	0.04815702
147	0x3e263e48	0.16234696
148	0x3dfb5219	0.12271518
149	0x3d14757a	0.036244847
150	0xbdb1f2b5	-0.08688871
151	0xbcd4e8af	-0.025989858
152	0xbc4895fb	-0.012242789
153	0x3da7ab2a	0.08186944
154	0xbdc73a3b	-0.097279035
155	0x3ea1022e	0.31446975
156	0xbeba6d31	-0.3641143
157	0x3eb0de9f	0.34544846
158	0x3db8dd85	0.090266265
159	0x3d57809f	0.052612897
160	0x3c2b2dec	0.01044796
161	0xbe0a9a4a	-0.13535419
162	0xbe303b3d	-0.17210098
163	0xbe4cdebe	-0.20006844
164	0x3dd98d28	0.106226265
165	0xbdc40446	-0.095711276
166	0xbdba5c2a	-0.0909961
167	0xba662100	-0.0008778721
168	0xbdb26074	-0.08709803
169	0x3d0c28e9	0.034218702
170	0x3dafd59d	0.085856654
171	0xbe8263db	-0.2546681
172	0x3d0ae101	0.033905987
173	0x3de88e13	0.113552235
174	0xbb9b7dda	-0.0047452273
175	0xbd841790	-0.06449807
176	0xbd0f004e	-0.0349124
177	0x3ee4253f	0.44559667
178	0x3db5e27e	0.088810906
179	0x3e1acf98	0.15118253
180	0x3ebab42d	0.36465588
181	0xbe4e6077	-0.20153986
182	0xbd5e97d9	-0.054344032
183	0xbe4dc60b	-0.20095079
184	0xbe59a517	-0.21254383
185	0x3d4b73fd	0.049671162
186	0xbe286833	-0.16445999
187	0x3e1df266	0.15424499
188	0xbe9c371f	-0.30510804
189	0x3e916800	0.28399658
190	0xbd0fb1c4	-0.03508164
191	0x3e8afb82	0.2714501
192	0x3e079780	0.13241386
193	0xbb945a4c	-0.004527366
194	0x3e51a217	0.20471989
195	0x3c82b3d6	0.015954893
196	0xbe347897	-0.17624126
197	0xb98d05cf	-0.00026897943
198	0xbe04a877	-0.12954889
199	0xbd293ac6	-0.041315816
200	0x3dff5868	0.12468034
201	0xbb096d84	-0.0020969817
202	0xbd0fddc1	-0.03512359
203	0xbeb65471	-0.356113
204	0xbc8e05f7	-0.017336829
205	0x3caae8b9	0.020862924
206	0xbda1e210	-0.07904446
207	0x3d9e9839	0.07743878
208	0xbe7771b4	-0.24164468
209	0x3e66423f	0.22486208
210	0x3e4ca3f5	0.1998442
211	0x3dedaaae	0.1160482
212	0x3ddc7bdd	0.107658125
213	0x3ea347a2	0.3189059
214	0x3c2f912f	0.010715767
215	0x3c7e9fe1	0.015541048
216	0xbdcc23b0	-0.09967744
217	0x3de72fbb	0.11288401
218	0x3cf88077	0.030334694
219	0x3dbf7b13	0.093496464
220	0xbccdb5da	-0.025111128
221	0x3ea5c12b	0.32373938
222	0xbd5535a5	-0.052053113
223	0xbc8bcfda	-0.017066885
224	0xbe386eda	-0.18011037
225	0xbea5e85b	-0.32403836
226	0x3e2fe300	0.17176437
227	0xbd547aa4	-0.05187477
228	0xbd39de3f	-0.045377966
229	0xbd6b8857	-0.05750307
230	0x39118399	0.00013877302
231	0xbe10186f	-0.1407182
232	0x3e8f584a	0.27997047
233	0x3d6d9103	0.057999622
234	0x3eda867a	0.42680722
235	0x3e740b86	0.23832521
236	0x3e8ac42a	0.27102786
237	0xbecc5114	-0.39905608
238	0x3d756ea6	0.059919976
239	0xbcafce7c	-0.021460764
240	0xbe3d2ba7	-0.18473683
241	0x3e1a89aa	0.15091577
242	0x3d63c526	0.055607937
243	0xbbd70950	-0.0065623894
244	0xbe3b903d	-0.18316741
245	0xbe60c623	-0.21950583
246	0xbc6c83f2	-0.014435755
247	0xbe5dbe5a	-0.21654645
248	0x3e953390	0.29140902
249	0x3db9ca1b	0.09071752
250	0x3cd2ae2c	0.025717817
251	0xbe035949	-0.12827028
252	0xbe9593a8	-0.29214215
253	0xbec0f349	-0.37685612
254	0xbeda5b0d	-0.4264759
255	0xbd1e5219	-0.038652513

conv2.bias f4 [16]
0	0xbc238ad0	-0.009981826
1	0xbcdf9089	-0.0272906
2	0x3c41f89a	0.011839056
3	0xbcaba32a	-0.020951826
4	0x3c1c1b26	0.009527957
5	0xbd2ea8fd	-0.04264163
6	0x3d148563	0.03626002
7	0xbc9eba97	-0.019376082
8	0xbc7f9080	-0.015598416
9	0xbcb75386	-0.022378694
10	0xbbd71176	-0.006563361
11	0xbd01c838	-0.031685084
12	0x3c933db0	0.01797375
13	0xbbe10e4c	-0.0068681594
14	0x3c1d82f1	0.009613738
15	0x3c5b8ec1	0.013400734

bn2.weight f4 [16]
0	0x3f7d0fa0	0.98851967
1	0x3f80ae79	1.0053245
2	0x3f7a31b4	0.9773209
3	0x3f8064a8	1.0030718
4	0x3f81e827	1.0148972
5	0x3f811f0c	1.00876
6	0x3f802598	1.0011473
7	0x3f7c3171	0.9851294
8	0x3f7eb17d	0.99489576
9	0x3f7fe200	0.99954224
10	0x3f81f0e3	1.0151638
11	0x3f7dbcc0	0.99116135
12	0x3f810181	1.0078584
13	0x3f7fea81	0.999672
14	0x3f80c27b	1.0059351
15	0x3f802e37	1.0014104

bn2.bias f4 [16]
0	0xbd0beee4	-0.03416337
1	0xbd457598	-0.04820785
2	0xbbaa4458	-0.0051961355
3	0x3c24a39c	0.010048773
4	0x3ccb3098	0.024803445
5	0xbca46b80	-0.020070791
6	0x3cc0d733	0.023540115
7	0x3c1c6e77	0.009547821
8	0xbcb5841a	-0.022157717
9	0xbb9f46fd	-0.0048607574
10	0xba2a27ad	-0.00064908975
11	0xbcfa4f5f	-0.030555425
12	0xbbebb3de	-0.0071930727
13	0xbc6fc0bc	-0.014633354
14	0xbcf968fe	-0.030445572
15	0xbbffa473	-0.0078015863

bn2.running_mean f4 [16]
0	0x3ee5bca5	0.44870487
1	0x3f118685	0.56845886
2	0x3ee26e1d	0.44224635
3	0x3ecb8397	0.39748833
4	0x3f0b4961	0.5440884
5	0x3ebc028b	0.3672069
6	0x3efa6f42	0.48913008
7	0x3ec0fece	0.376944
8	0x3eff4ff3	0.49865684
9	0x3ef18665	0.47172847
10	0x3ecee99a	0.404126
11	0x3ec067d8	0.37579226
12	0x3f1eeaa6	0.62076795
13	0x3f66174b	0.8987929
14	0x3eed48d0	0.46344614
15	0x3ed62cfc	0.41831195

bn2.running_var f4 [16]
0	0x3eec963c	0.4620837
1	0x3f87daf1	1.0613691
2	0x3f0241fc	0.50881934
3	0x3ec6dcd0	0.38840342
4	0x3f2945bf	0.6612205
5	0x3ed0c733	0.40776977
6	0x3f28c38e	0.6592339
7	0x3e9af1bd	0.30262557
8	0x3ef80a43	0.4844533
9	0x3ed76fd1	0.42077497
10	0x3eefec1b	0.46859822
11	0x3ef10514	0.47074187
12	0x3f6d6477	0.9273142
13	0x402512e7	2.5792787
14	0x3ef7a591	0.48368505
15	0x3e9e1008	0.30871606

conv3.weight f4 [32, 16, 3, 3]
0	0x3d9016ba	0.07035585
1	0x3e065364	0.13117748
2	0xbe7cb2f6	-0.24677643
3	0xbd799f6d	-0.060943056
4	0x3ddad8de	0.106858954
5	0xbe46327f	-0.193552
6	0x3de54264	0.11194304
7	0x3e5358fc	0.20639414
8	0xbe1c4d78	-0.15263927
9	0xbcf6a97f	-0.030110119
10	0x3dff0cad	0.124535896
11	0x3c150fb2	0.00909798
12	0x3d05b1c2	0.032640226
13	0xbde6d1ed	-0.11270509
14	0x3bbfe486	0.0058560995
15	0xbe101063	-0.14068751
16	0xbde986b1	-0.114026435
17	0xbe7cc66a	-0.24685064
18	0xbe454e90	-0.1926825
19	0xbe0a80c7	-0.13525687
20	0x3dadcaa2	0.08485915
21	0x3d9646c5	0.07337717
22	0xbd241831	-0.040062133
23	0x3d41f6e1	0.047354583
24	0xbdebcdc2	-0.115138546
25	0xbe346a51	-0.17618681
26	0x3cb6f810	0.022335082
27	0x3d09e528	0.033665806
28	0x3cc92a80	0.024556398
29	0x3d914977	0.070940904
30	0xbb177a46	-0.0023113652
31	0x3c8f0955	0.017460505
32	0x3c8a3d62	0.016874973
33	0x3baed2f6	0.005335207
34	0x3e4177ca	0.18893352
35	0xbdb32e8f	-0.08749115
36	0xbe36bc96	-0.17845377
37	0x3d4c4f9b	0.049880605
38	0xbce0d581	-0.027445557
39	0x3d9e66be	0.0773444
40	0x3dd8beb4	0.10583249
41	0x3e3d5506	0.18489465
42	0xbcd01b35	-0.025403598
43	0x3e1b9773	0.15194492
44	0xbdff5311	-0.124670155
45	0xbbb0e671	-0.0053985645
46	0xbd17e117	-0.037079897
47	0xbe3d8385	-0.18507202
48	0xbcdd1089	-0.026985424
49	0xbd45ec09	-0.048320804
50	0x3da6bc76	0.08141415
51	0x3dbfd49a	0.093667224
52	0x3dbdb14d	0.09262333
53	0xbd964f3a	-0.0733933
54	0x3c872b09	0.016500013
55	0xbe77058c	-0.2412321
56	0x3cba2b8d	0.022725845
57	0xbd34ca57	-0.04413828
58	0xbd28666d	-0.041113306
59	0xbd75edad	-0.06004112
60	0x3dcd3566	0.100199506
61	0xbda8c358	-0.08240384
62	0xbe654e6f	-0.22393201
63	0x3e272632	0.16323164
64	0xbe41fed5	-0.18944867
65	0xbd3b0190	-0.045655787
66	0xbe11204b	-0.14172475
67	0xbd22d950	-0.039758027
68	0xbd510dc1	-0.051038507
69	0x3dd18724	0.10230854
70	0xbdb919c7	-0.0903812
71	0xbe014b25	-0.12626322
72	0xbe080d20	-0.13286257
73	0x3c999162	0.018746082
74	0x3da0e3de	0.07855962
75	0x3dac97db	0.08427402
76	0x3ddec560	0.1087749
77	0x3dd8be95	0.10583226
78	0xbd6944af	-0.056950267
79	0xbe0f9fc9	-0.14025797
80	0xbe378478	-0.17921627
81	0xbe89af8c	-0.26891744
82	0x3e3414b4	0.17586023
83	0xbdea3d51	-0.114374764
84	0xbd4380f9	-0.04773042
85	0x3e361adf	0.17783688
86	0xbdba806f	-0.09106528
87	0x3db1cf92	0.08682169
88	0x3e83101a	0.25598222
89	0x3d9d2d27	0.07674628
90	0xbe7bf06f	-0.24603437
91	0xbd2e0c17	-0.042492
92	0x3d799008	0.060928375
93	0xbd3d62c6	-0.046236776
94	0xbca75947	-0.020428313
95	0x3bcacc18	0.0061888807
96	0xbd833386	-0.06406312
97	0xbd2ca9eb	-0.042154234
98	0x3d92fd80	0.071772575
99	0x3d9b3ead	0.07580314
100	0xbe09908c	-0.13434047
101	0xbd8bbbbf	-0.06822919
102	0x3e0497a2	0.12948468
103	0x3cd083e2	0.025453512
104	0x3cce2352	0.025163326
105	0xbe3fceba	-0.18731204
106	0x3df56be0	0.11983466
107	0xbe315691	-0.17318179
108	0xbc861359	-0.016366648
109	0xbcf48df9	-0.029852854
110	0x3d79f7cc	0.061027333
111	0x3cd3dc12	0.025861774
112	0x3e2a4131	0.16626431
113	0xbd345ad7	-0.044031944
114	0x3e06fb8c	0.13181895
115	0x3d8c19d2	0.06840862
116	0x3e174d00	0.14775467
117	0xbe3d29eb	-0.18473022
118	0x3b459659	0.0030149429
119	0x3e4d6caa	0.20060983
120	0x3da6bc31	0.081413634
121	0xbb850161	-0.0040590023
122	0xbd0a2526	-0.033726834
123	0xbdaaa86c	-0.08332905
124	0xbc1c697b	-0.009546633
125	0xbc8cd296	-0.017190259
126	0xbcd8dc7c	-0.026472323
127	0xbdbaeede	-0.091275916
128	0x3e43133f	0.1905031
129	0x3ddbc3d8	0.107307136
130	0xbdbedc3e	-0.093193516
131	0x3e13488d	0.14383145
132	0x3dee91af	0.11648881
133	0x3e145b3f	0.14487933
134	0xbe00bfcd	-0.12573166
135	0x3cd3f2d0	0.025872618
136	0x3de66801	0.11250306
137	0x3e08374e	0.13302347
138	0xbc14a294	-0.009071965
139	0xbd5921d8	-0.05301079
140	0x3dd3f678	0.103497446
141	0x3e25def2	0.16198328
142	0xbc10197a	-0.008795137
143	0x3e1b13e1	0.15144302
144	0x3c466866	0.012109851
145	0xbdb9c2ef	-0.09070384
146	0x3c46e5e5	0.012139772
147	0xbaebb2d6	-0.0017982374
148	0xbe1a71e7	-0.15082513
149	0xbcb7d8f6	-0.022442322
150	0xbe266cda	-0.16252461
151	0xbde4c60d	-0.11170588
152	0xbd085d3e	-0.033292048
153	0xbea91ef9	-0.33031443
154	0x3e471d0f	0.19444679
155	0x3e5be92a	0.21475664
156	0xbe4a5d34	-0.19762117
157	0x3e44c808	0.19216931
158	0xbdef2319	-0.11676616
159	0xbe171f46	-0.14758024
160	0x3e8aedb7	0.27134487
161	0xbdc3fe7c	-0.095700234
162	0xbd1b89f6	-0.037973367
163	0x3cd20d05	0.025640974
164	0x3b769556	0.0037625632
165	0x3dab4554	0.08362833
166	0xbdfe9cfc	-0.12432286
167	0xbc8ba2d3	-0.017045414
168	0x3d993794	0.07481304
169	0xbc20a1c1	-0.00980419
170	0xbc7fd309	-0.01561428
171	0x3d5f002d	0.054443527
172	0xbbd3ab98	-0.0064596646
173	0x3e60f78d	0.21969433
174	0xbe60b17f	-0.2194271
175	0x3d4b6baa	0.049663223
176	0xbd6b62ed	-0.05746739
177	0x3e10c032	0.14135817
178	0xbcbc378d	-0.022975707
179	0xbdb5cd20	-0.08877015
180	0xbce11478	-0.02747558
181	0x38d577c2	0.00010178938
182	0xbaafec8d	-0.0013421938
183	0x3e8a2978	0.26984763
184	0xbdf2e89a	-0.118607715
185	0x3dd0ad5f	0.10189318
186	0xbe5e4929	-0.21707596
187	0x3d3728bc	0.04471658
188	0xbdc7d423	-0.09757259
189	0xba6176da	-0.0008600779
190	0xbdaf2f72	-0.08553971
191	0xbd4846e9	-0.04889575
192	0xbd923931	-0.07139815
193	0xbe108558	-0.14113367
194	0xbd81f230	-0.06345022
195	0x3d1e1a22	0.03859914
196	0xbe4643dd	-0.19361825
197	0x3da6194b	0.08110293
198	0x3ddb0122	0.106935754
199	0x3e466a37	0.19376455
200	0x3e6524c2	0.22377303
201	0x3d6ac138	0.057313174
202	0x3d32faad	0.043696094
203	0x3d92023c	0.071293324
204	0x3e285985	0.16440399
205	0xbcae584f	-0.021282343
206	0x3e70eed1	0.23528601
207	0x3e119059	0.1421522
208	0xbd6cc39b	-0.05780373
209	0x3d4016dc	0.0468968
210	0xbdefe4c0	-0.117135525
211	0xbe28c709	-0.16482176
212	0x3cb41094	0.021980561
213	0x3dce3fdf	0.10070776
214	0x3e1b8b31	0.15189816
215	0x3cca9c4a	0.024732728
216	0xbd80c9fe	-0.06288527
217	0x3da70e7f	0.08157062
218	0xbd40b0fd	-0.04704379
219	0x3d795b30	0.06087798
220	0xbd9ea8fd	-0.07747076
221	0x3df00564	0.11719778
222	0x3b763d62	0.0037573208
223	0x3c2f0737	0.0106828725
224	0xbd5ba703	-0.05362607
225	0xbe017f3f	-0.12646197
226	0xbd9fb3fb	-0.077980004
227	0xbd54bbf0	-0.051937044
228	0xbe2e46c8	-0.17019188
229	0x3db5d769	0.08878977
230	0xbd80a777	-0.062819414
231	0xbc95dceb	-0.018293818
232	0xbda3f241	-0.08005191
233	0x3e1fb39f	0.15595864
234	0xbe589d45	-0.21153744
235	0x3dd859e6	0.10564022
236	0xbe5232d1	-0.20527197
237	0x3c123a1c	0.008924987
238	0xbe55f4ae	-0.20894119
239	0xbcf53636	-0.029933076
240	0x3d423ae5	0.047419447
241	0x3c9edec0	0.019393325
242	0x3e15a1be	0.14612481
243	0x39f99131	0.00047601157
244	0xbe01e87f	-0.12686346
245	0x3c8910bb	0.01673161
246	0x3e1603a8	0.14649832
247	0xbd923f07	-0.07140928
248	0xbde9259b	-0.11384126
249	0x3c9076d1	0.017634781
250	0xbde163af	-0.11005341
251	0xbdd1c9d7	-0.10243576
252	0xbd343535	-0.043996055
253	0xbd1fda10	-0.03902632
254	0x3c8af194	0.016960897
255	0xbd36c2a6	-0.044619225

conv3.bias f4 [32]
0	0x3c0966e6	0.008386349
1	0xbc5a59ce	-0.013327075
2	0x3c4872cf	0.012234404
3	0xbd0e9b88	-0.034816295
4	0xbcd4281f	-0.025898037
5	0xbac52c01	-0.0015043021
6	0x3bb2bbfb	0.005454538
7	0x3ccb56b0	0.02482161
8	0xbd9422ed	-0.07233224
9	0xbd2cfddc	-0.042234287
10	0xbd73dc0f	-0.059536036
11	0x3ba0027d	0.004883109
12	0xbd207a9c	-0.03917943
13	0x3d5ddac7	0.05416372
14	0x3d044f55	0.03230222
15	0x3c6c25e7	0.0144133335
16	0xbca102a9	-0.019654589
17	0xbd0a808f	-0.03381401
18	0xbcd02bad	-0.025411451
19	0xba1214a2	-0.00055725325
20	0xbd21cfdb	-0.039504867
21	0xbca6cc2a	-0.020361025
22	0x3c0a30c7	0.008434481
23	0xbd2ad928	-0.041711003
24	0x3cb76799	0.022388266
25	0xbd655179	-0.0559859
26	0xbd43462a	-0.047674336
27	0xbd9a0d78	-0.075221
28	0xbbd511e8	-0.0065023787
29	0xbd0162b5	-0.031588275
30	0xbd72fa98	-0.059321016
31	0xbc937b2b	-0.018003067

bn3.weight f4 [32]
0	0x3f831775	1.0241534
1	0x3f7ef99e	0.99599636
2	0x3f7fd535	0.99934703
3	0x3f81fe39	1.0155708
4	0x3f83ce48	1.0297327
5	0x3f859439	1.0435859
6	0x3f7fedef	0.9997243
7	0x3f7a6c0e	0.9782113
8	0x3f850263	1.0391353
9	0x3f810d6c	1.0082221
10	0x3f840afb	1.0315851
11	0x3f812eda	1.0092423
12	0x3f816537	1.0109013
13	0x3f7fc87b	0.99915284
14	0x3f809b26	1.0047348
15	0x3f8130b9	1.0092994
16	0x3f7a37b8	0.9774127
17	0x3f82fde1	1.0233728
18	0x3f824d77	1.017989
19	0x3f7af8f6	0.98036134
20	0x3f7de22a	0.99173224
21	0x3f8254f4	1.0182176
22	0x3f822db1	1.0170194
23	0x3f880b7c	1.0628505
24	0x3f8588e7	1.0432404
25	0x3f822191	1.0166494
26	0x3f83a4dd	1.0284687
27	0x3f88328c	1.0640426
28	0x3f859ae6	1.0437896
29	0x3f83d035	1.0297915
30	0x3f849d9a	1.0360596
31	0x3f80508d	1.0024582

bn3.bias f4 [32]
0	0xbe0cf8ba	-0.13766757
1	0x3e070921	0.13187076
2	0x3df9b0ec	0.12191948
3	0x3df3257e	0.118723854
4	0xbe085cfa	-0.13316718
5	0xbe006bd5	-0.12541135
6	0x3dfb70cd	0.122773744
7	0x3dff1eac	0.12457022
8	0xbe05db94	-0.13072044
9	0x3e055182	0.13019374
10	0xbdfdd51f	-0.12394165
11	0x3e06dabc	0.13169378
12	0x3dfcb49b	0.12339135
13	0x3df7cc28	0.120994866
14	0x3e029dcb	0.12755506
15	0x3e04684b	0.1293041
16	0x3e003815	0.12521394
17	0xbdfe525b	-0.12418052
18	0xbe000893	-0.12503271
19	0x3df2678e	0.11836158
20	0x3e0fd4a6	0.14045963
21	0x3e02c30b	0.12769715
22	0x3e00eafa	0.12589636
23	0xbdf891fa	-0.12137218
24	0xbe077bf6	-0.13230881
25	0xbe113e6c	-0.14183968
26	0xbe001d1e	-0.12511107
27	0xbe0cec8b	-0.13762109
28	0xbdfff566	-0.12497978
29	0xbe0408a9	-0.12893929
30	0xbe0f1123	-0.13971381
31	0x3dff696d	0.1247128

bn3.running_mean f4 [32]
0	0x3f0c0e94	0.54709744
1	0x3f24061c	0.6407182
2	0x3f1eacd7	0.6198248
3	0x3f06079b	0.52355355
4	0x3eea7230	0.45790243
5	0x3ee7dd8c	0.45286214
6	0x3f3e9b31	0.74455553
7	0x3f0a8b91	0.5411921
8	0x3f061e09	0.5238958
9	0x3edbea77	0.4295232
10	0x3f1920cb	0.59815663
11	0x3f0d3de2	0.5517255
12	0x3f01046e	0.50397384
13	0x3f09ff2f	0.53905004
14	0x3ef96ebd	0.487173
15	0x3f226426	0.63434064
16	0x3f01fc22	0.5077535
17	0x3f042976	0.51625764
18	0x3eede06b	0.4646028
19	0x3f1ca8cc	0.61195064
20	0x3ef21aca	0.47286063
21	0x3f02760e	0.5096139
22	0x3f01dd57	0.5072836
23	0x3eec9325	0.46206012
24	0x3f044588	0.51668596
25	0x3f03ade4	0.5143721
26	0x3f0e4313	0.555711
27	0x3f160cd4	0.58613324
28	0x3ef221e4	0.47291481
29	0x3ef18b19	0.47176436
30	0x3ebd36a0	0.36955738
31	0x3f208340	0.6270027

bn3.running_var f4 [32]
0	0x3f1df269	0.61698014
1	0x3f92cb01	1.1468202
2	0x3f3ffc3f	0.7499427
3	0x3f66fbb2	0.90227807
4	0x3f0d5588	0.55208635
5	0x3f1aea5d	0.6051386
6	0x3f8a4cc7	1.080468
7	0x3f4cf8bb	0.8006703
8	0x3f52303b	0.82104844
9	0x3f06e637	0.5269503
10	0x3f66104e	0.8986863
11	0x3f231c40	0.6371498
12	0x3f4df838	0.80456877
13	0x3f201932	0.62538445
14	0x3f05a3f8	0.5220332
15	0x3f2cb9bb	0.674709
16	0x3f252fb7	0.6452593
17	0x3f1771c3	0.5915796
18	0x3f16fd2a	0.5898005
19	0x3f5d619e	0.86477077
20	0x3efc7402	0.49307257
21	0x3f3611f2	0.7112113
22	0x3ed8292a	0.42218906
23	0x3f1978d5	0.5995
24	0x3f3c7096	0.7360929
25	0x3f4c6ee2	0.79856694
26	0x3f6e5755	0.9310201
27	0x3f847725	1.034886
28	0x3f2b623a	0.66946757
29	0x3f3641ac	0.7119396
30	0x3eec8148	0.46192384
31	0x3f4909ef	0.7853078

lin.weight f4 [5, 32]
0	0xbc31fc34	-0.010863353
1	0x3d6bd782	0.05757857
2	0xbdd5a826	-0.104324624
3	0xbe8af1b8	-0.27137542
4	0x3e6660aa	0.22497812
5	0x3d65420b	0.055971187
6	0xbde544e2	-0.11194779
7	0xbde727b3	-0.11286869
8	0x3e77313e	0.24139878
9	0xbb666615	-0.003515606
10	0x3e3de72c	0.18545216
11	0xbc32160f	-0.010869517
12	0xbd1bb563	-0.03801478
13	0xbe0a8259	-0.13526286
14	0x3d5b3d80	0.053525448
15	0x3cfe4ef1	0.031043502
16	0xbddadcb9	-0.10686631
17	0x3e8b4ca5	0.27206913
18	0xbcd49fcb	-0.025955101
19	0xbe86e416	-0.2634589
20	0xbaa89e66	-0.0012864589
21	0xbd94b8f2	-0.07261838
22	0x3d986e39	0.07442898
23	0x3e85c16a	0.26124126
24	0xbd2014bc	-0.039082274
25	0x3e5a0448	0.21290696
26	0x3df3f514	0.11911979
27	0x3e67e194	0.22644645
28	0x3d4eca56	0.05048593
29	0xbcf07a44	-0.029355176
30	0xbd46782d	-0.048454452
31	0xbe4f1180	-0.2022152
32	0x3e92532e	0.28579086
33	0xbc199b29	-0.009375372
34	0xbe20a5ed	-0.15688296
35	0xbe803dd8	-0.25047183
36	0x3e2da162	0.16956094
37	0x3e86e961	0.2634993
38	0xbe5d21f9	-0.21594991
39	0xbdf2c587	-0.118540816
40	0x3d9ab720	0.075544596
41	0xbdc6f074	-0.097138315
42	0x3e6c246c	0.23060769
43	0xbd945179	-0.07242102
44	0xbddf25e7	-0.10895901
45	0xbcff30ea	-0.031151254
46	0x3c42f98d	0.011900318
47	0xbcebc6c6	-0.028781306
48	0xbe82f736	-0.25579232
49	0x3c39ad28	0.011332788
50	0xbc3bff6f	-0.011474474
51	0xbe8728b0	-0.2639823
52	0xbdf13f65	-0.1177967
53	0xbd3adbb1	-0.04561967
54	0x3c394687	0.011308319
55	0x3e42d0b0	0.1902492
56	0x3db0aad8	0.08626336
57	0x3e454be2	0.19267228
58	0x3d8112bd	0.06302402
59	0x3d095ea7	0.033537533
60	0x3e92710c	0.28601873
61	0xbd6696e7	-0.056296255
62	0x3d693fc3	0.056945574
63	0xbb924daa	-0.0044648247
64	0x3e04022f	0.12891458
65	0xbe5b8a3f	-0.21439455
66	0xbe697773	-0.22799473
67	0xbda09450	-0.07840788
68	0x3e79ac99	0.24382247
69	0x3dffc85d	0.12489388
70	0x3d7bbeb7	0.061461177
71	0xbd9257e3	-0.07145669
72	0x3d9cac89	0.07650096
73	0xbdb4023d	-0.087894894
74	0x3decbf53	0.1155993
75	0xbd7f93ff	-0.062397
76	0xbe5e37f5	-0.21701033
77	0xbe1b4cdb	-0.15166037
78	0xbcbd940e	-0.023141887
79	0xbdb05154	-0.08609262
80	0xbcac9015	-0.021064797
81	0x3d292e60	0.041303992
82	0x3d9fddad	0.07805953
83	0xbe32f7e4	-0.17477375
84	0x3c9ffbb2	0.019529197
85	0xbd9acfaf	-0.07559144
86	0xbe0079de	-0.12546489
87	0x3e37354e	0.17891428
88	0x3e6c53bd	0.23078819
89	0x3e02d232	0.12775496
90	0xbb97ec09	-0.004636292
91	0x3e42cae3	0.19022708
92	0x3e4ae2c9	0.19813074
93	0x3e6f60cd	0.2337677
94	0x3e11e058	0.14245737
95	0xbcdabe88	-0.02670218
96	0xbe2b035f	-0.16700505
97	0x3e1461e9	0.14490475
98	0x3e4a810a	0.19775787
99	0x3e6bfbc4	0.2304526
100	0xbdba9ac1	-0.09111548
101	0xbe60da0a	-0.21958175
102	0x3e31be1c	0.17357677
103	0x3e6d5a1f	0.2317891
104	0xbe42ef31	-0.19036557
105	0x3e301ae0	0.17197752
106	0xbe2c491d	-0.16824766
107	0x3e66a87a	0.22525206
108	0x3e307a70	0.17234206
109	0x3e764471	0.24049546
110	0x3e89c8db	0.26911053
111	0x3e6f64f0	0.23378348
112	0x3e3b3d05	0.18284996
113	0xbe8256d0	-0.25456858
114	0xbe895e87	-0.2682993
115	0x3e555dc4	0.2083655
116	0x3e2eb39e	0.17060706
117	0x3e412816	0.18862948
118	0x3e767acb	0.2407028
119	0xbe936e40	-0.28795052
120	0xbe2c8c00	-0.16850281
121	0xbdc05c02	-0.09392549
122	0xbe788538	-0.24269569
123	0xbdf1cc18	-0.11806506
124	0xbe73dca7	-0.23814641
125	0xbe50c795	-0.20388635
126	0xbe696758	-0.22793329
127	0x3e62be53	0.22142915
128	0xbd724941	-0.05915189
129	0xbd3b55bd	-0.045736063
130	0xbd9cf50b	-0.07663926
131	0xbe71e3d0	-0.2362206
132	0xbd78a75e	-0.06070649
133	0x3def696c	0.116900295
134	0xbe4cd8f1	-0.20004632
135	0x3db0231a	0.08600445
136	0xbc9e7b00	-0.01934576
137	0xbd202642	-0.039098985
138	0x3dca706a	0.098847225
139	0xbd75ac49	-0.059978757
140	0xbe2ad5e3	-0.16683154
141	0xbe49f9cc	-0.19724196
142	0xbe4ea154	-0.2017873
143	0xbdfea3c8	-0.124335825
144	0xbe051964	-0.12997967
145	0x3d731093	0.05934198
146	0x3e573e69	0.21019901
147	0xbe392f56	-0.18084463
148	0xbe47eec6	-0.19524679
149	0xbe13bf91	-0.14428546
150	0xbe120f74	-0.14263707
151	0xbd002d45	-0.031293172
152	0x3e168636	0.14699635
153	0x3e1e8da1	0.15483715
154	0x3e4bbe08	0.1989671
155	0x3e65dc36	0.22447285
156	0xbd8e5d85	-0.06951431
157	0x3e1234d6	0.14277968
158	0xbd4d8ffe	-0.05018615
159	0xbe64b76f	-0.223356

lin.bias f4 [5]
0	0xbe73fec5	-0.23827656
1	0xbdc61ca9	-0.09673435
2	0xbd2e3978	-0.042535275
3	0x3d9cd804	0.07658389
4	0xbe373598	-0.17891538

conv.0.weight f4 [8, 1, 5, 5]
0	0xbea61207	-0.3243563
1	0xbd68652e	-0.056737117
2	0x3c17fe6f	0.00927697
3	0xbe52d3aa	-0.20588556
4	0xbd23a001	-0.039947513
5	0xbec66bd8	-0.38754153
6	0xbe60104c	-0.21881217
7	0xbeb8b646	-0.36076564
8	0x3d3acbc2	0.045604475
9	0x3eb5b191	0.35487035
10	0xbe87c517	-0.26517555
11	0x3ee50249	0.44728306
12	0x3dc5a3a8	0.096503556
13	0xbe498d80	-0.19682884
14	0xbe8afecf	-0.2714753
15	0xbd35d872	-0.04439587
16	0x3e4b0662	0.19826654
17	0x3eb2027b	0.34767517
18	0xbdc69ef4	-0.09698287
19	0xbdd376f3	-0.10325422
20	0x3ea2c03f	0.31787297
21	0xbba2b4a6	-0.0049653826
22	0xbcf43571	-0.02981064
23	0x3f14d38a	0.58135283
24	0xbecf81fd	-0.4052886
25	0xbe5f1fc3	-0.2178946
26	0xbe1c64fc	-0.15272897
27	0x3ef11428	0.4708569
28	0x3e18ec7f	0.14933966
29	0x3ce14846	0.027500283
30	0x3f307ef1	0.689437
31	0xbe370f16	-0.17876849
32	0x3f289b11	0.6586161
33	0x3dc4a45b	0.09601661
34	0x3d8221b7	0.06354087
35	0xbd970507	-0.07374006
36	0x3dcc8395	0.09986035
37	0xbde1d80f	-0.11027538
38	0x3eab8514	0.33499968
39	0x3e533eb4	0.20629388
40	0xbf11fad3	-0.5702335
41	0x3ea192ba	0.31557256
42	0xbe31d9e5	-0.17368276
43	0xbdafdbd8	-0.08586854
44	0xbe3f3403	-0.18672185
45	0xbc864b76	-0.016393404
46	0x3ec4cec1	0.3843899
47	0xbd1f98be	-0.038964026
48	0x3e40f4b0	0.18843341
49	0xbe6233d0	-0.22090077
50	0xbed77f68	-0.4208939
51	0xbf02a536	-0.5103334
52	0xbe5542d1	-0.2082627
53	0x3eb9fd59	0.363261
54	0xbe1bddc0	-0.1522131
55	0xbd6d41da	-0.05792413
56	0xbe8c3652	-0.27385193
57	0x3f03d558	0.5149741
58	0x3eb6200b	0.35571322
59	0xbc6069ba	-0.013697082
60	0x3d879856	0.06620853
61	0xbeedd8cd	-0.46454468
62	0xbea6657b	-0.32499298
63	0x3c400d42	0.011721911
64	0xbe42559a	-0.18977967
65	0x3edff421	0.43740943
66	0x3dbe6dd4	0.09298292
67	0xbe14916d	-0.145086
68	0x3d92cd20	0.07168031
69	0x3ece4e32	0.40294033
70	0x3dc715b6	0.09720938
71	0xbdb150fb	-0.08658024
72	0x3d810242	0.06299259
73	0xbdf23c11	-0.11827863
74	0x3dc98956	0.09840648
75	0x3d44e497	0.048069563
76	0xbe6d10b7	-0.23150907
77	0xbea8607f	-0.3288612
78	0x3dc00cb0	0.0937742
79	0x3e077fbe	0.13232324
80	0x3d2c73ad	0.042102505
81	0xbd8ef07f	-0.06979465
82	0xbf2ae12a	-0.66749823
83	0x3ea2b918	0.3178184
84	0xbd25f2da	-0.040514804
85	0x3e15bc94	0.14622718
86	0xbec7e6c7	-0.39043257
87	0x3e107713	0.14107923
88	0xbe308680	-0.17238808
89	0xbe3dc76e	-0.18533108
90	0xbd4a364e	-0.049368195
91	0x3e9a242d	0.30105725
92	0xbda39441	-0.079872616
93	0x3e903475	0.28165022
94	0x3e9539b1	0.29145578
95	0xbea5a3fc	-0.32351673
96	0x3f1b5310	0.6067362
97	0xbdc91bc3	-0.09819748
98	0x3d5674cf	0.05235749
99	0x3d26934c	0.040667817
100	0xbf10f22a	-0.56619513
101	0x3e03690b	0.1283304
102	0xbe44e723	-0.19228797
103	0xbe8a9acf	-0.27071235
104	0x3e263c5a	0.1623396
105	0xbe4d55bc	-0.20052236
106	0x3d5d7da0	0.054074883
107	0xbddbe61c	-0.10737249
108	0xbe6026b2	-0.21889761
109	0x3d466fe5	0.048446555
110	0xbe2e3e13	-0.17015867
111	0xbee4b81e	-0.4467172
112	0x3d3e26a7	0.04642358
113	0xbe8fdc1d	-0.2809762
114	0x3dcd0daf	0.100123756
115	0xbdb6e81b	-0.08930989
116	0xbdc29f9d	-0.095031
117	0x3d0590b2	0.032608695
118	0xbc3d85dc	-0.011567559
119	0x3e56d03d	0.20977874
120	0x3dd772f2	0.10519971
121	0x3dc1ebfa	0.09468837
122	0xbe3ba933	-0.18326263
123	0xbc3d1e92	-0.011542933
124	0xbe05c8c8	-0.13064873
125	0x3dc2712b	0.09494241
126	0xbe8b5aa6	-0.27217597
127	0x3cdfb698	0.027308747
128	0xbe2fa2e4	-0.17151982
129	0xbe0e7f4d	-0.13915749
130	0xbdfa79b5	-0.12230245
131	0xbe952cfe	-0.2913589
132	0x3e8a662a	0.2703107
133	0xbe0b9f4a	-0.13634983
134	0x3ed6f422	0.41983134
135	0xbbe96bf5	-0.007123465
136	0x3f44b5d6	0.7683996
137	0xbef8d3ac	-0.48598993
138	0x3e8dedae	0.27720398
139	0xbe8026f6	-0.25029725
140	0x3ea0cdff	0.31407163
141	0xbeb43b61	-0.35201553
142	0x3e90e697	0.28300926
143	0xbeed8fd6	-0.463988
144	0x3ed3d4e6	0.41373366
145	0xbe8183a0	-0.25295734
146	0x3d57d596	0.052693926
147	0xbe848fd5	-0.25890985
148	0x3e8310f2	0.25598866
149	0x3d21626b	0.0394005
150	0x3f5a1473	0.85187453
151	0xbd85aa86	-0.065266654
152	0xbdf65cc9	-0.12029416
153	0xbe4645a5	-0.19362505
154	0xbe16cbc1	-0.14726163
155	0x3ea57691	0.3231702
156	0x3e15ee22	0.14641622
157	0xbddb2594	-0.10700527
158	0x3edb980b	0.42889437
159	0xbf552083	-0.83252734
160	0x3dd2f2c5	0.10300211
161	0xbdba760b	-0.09104546
162	0xbe6d00c1	-0.23144819
163	0xbf2152c2	-0.63016903
164	0xbec08394	-0.37600386
165	0x3d7f5ca1	0.062344197
166	0xbd7f64c4	-0.062351957
167	0xbdcc2800	-0.09968567
168	0xbcd31cc3	-0.02577055
169	0xbef9daeb	-0.48799834
170	0xbdbba6b9	-0.09162659
171	0x3dba1302	0.09085657
172	0x3d9bca17	0.07606905
173	0x3ebe0b78	0.37118125
174	0x3d2afb2e	0.04174345
175	0xbdf64426	-0.12024717
176	0xbe5c6c17	-0.21525608
177	0xbe8c39c3	-0.2738782
178	0x3ee5d0b6	0.44885796
179	0xbf0ab16d	-0.5417698
180	0xbe16a981	-0.14713098
181	0xbce18d39	-0.02753316
182	0x3c37aa83	0.011210087
183	0xbec04cdc	-0.3755864
184	0xbf00dbda	-0.50335467
185	0xbe79ed38	-0.24406898
186	0x3e0c07f3	0.13674907
187	0xbdd499d7	-0.10380905
188	0x3ea2f6fe	0.31829065
189	0xbe8ca25e	-0.27467626
190	0xbd25d90d	-0.0404902
191	0xbcf43bab	-0.029813608
192	0x3ecfb228	0.4056561
193	0x3e950269	0.291034
194	0xbe9124c3	-0.2834836
195	0x3e8807bc	0.265684
196	0x3e438de5	0.19097097
197	0x3d6f8129	0.058472786
198	0xbe486518	-0.19569814
199	0x3e03639c	0.12830967

conv.0.bias f4 [8]
0	0xbc847462	-0.016168777
1	0x3c01a592	0.00791301
2	0x3af756de	0.0018870493
3	0x3cade9c5	0.021229634
4	0xbc9f77f5	-0.01946638
5	0x3c48e976	0.012262693
6	0x3cef23cc	0.029191874
7	0xbd2bee30	-0.0419752

conv.2.weight f4 [8]
0	0x3f8052bc	1.0025249
1	0x3f80d83f	1.0065993
2	0x3f7d6f5e	0.9899806
3	0x3f796e55	0.9743398
4	0x3f81c6b7	1.0138768
5	0x3f7e6d28	0.9938531
6	0x3f811fe6	1.008786
7	0x3f8073a3	1.003529

conv.2.bias f4 [8]
0	0xbaae0fbb	-0.0013279835
1	0x3cbb1cf5	0.022840956
2	0x3a61a39c	0.00086074485
3	0x3caeb927	0.021328522
4	0x3cafbcc6	0.021452319
5	0x3cd3da42	0.02586091
6	0xbd18b816	-0.037284933
7	0x3d38a268	0.045076758

conv.2.running_mean f4 [8]
0	0x3e9ca7df	0.30596825
1	0x3f28164e	0.65659034
2	0x3e8a0d81	0.26963428
3	0x3e683d52	0.22679642
4	0x3f3ac4bb	0.72956437
5	0x3e017a86	0.12644395
6	0x3f14081a	0.5782486
7	0x3ee8ba8f	0.45454833

conv.2.running_var f4 [8]
0	0x3e3940ab	0.18091075
1	0x3f70142c	0.9378078
2	0x3e16099b	0.14652102
3	0x3de75520	0.11295533
4	0x3f901cbd	1.125877
5	0x3d2197fd	0.039451588
6	0x3f230aab	0.63688153
7	0x3ede09c6	0.43366832

conv.3.weight f4 [16, 8, 3, 3]
0	0xbda16fb8	-0.07882637
1	0xbce75dad	-0.02824291
2	0xbdcc5d6c	-0.09978756
3	0xbe658234	-0.2241295
4	0x3e02d90f	0.12778114
5	0xbdbaebc1	-0.09126998
6	0xbd50556f	-0.050862726
7	0xbeaff2b6	-0.3436486
8	0x3da2af31	0.07943571
9	0x3e447227	0.1918417
10	0x3e864279	0.2622259
11	0x3c832f17	0.016013665
12	0x3d3b65b8	0.045751303
13	0xbbbfb346	-0.0058502285
14	0xbb9de229	-0.00481822
15	0x3e4e0ae7	0.20121346
16	0xbe1bca33	-0.15213852
17	0x3d3e0ff7	0.046401944
18	0x3e4795c1	0.1949072
19	0x3da9c6c5	0.082898654
20	0x3da6ee4a	0.08150919
21	0x3e0e02ae	0.1386821
22	0x3e00ed41	0.12590505
23	0xbe974514	-0.2954489
24	0x3e321684	0.17391402
25	0xbd756bd1	-0.059917275
26	0x3b7ac78a	0.0038265907
27	0x3d7eb033	0.062179755
28	0x3e64b15c	0.22333282
29	0xbc7c6553	-0.015405017
30	0xbdaa2229	-0.08307297
31	0xbd52f9f9	-0.051507924
32	0x3eac0fd4	0.33605826
33	0x3e142797	0.14468227
34	0x3d88e32d	0.06683955
35	0xbe432e4b	-0.19060628
36	0x3deb63fe	0.11493681
37	0x3dc9a695	0.09846226
38	0x3e832747	0.25615904
39	0x3e84bccc	0.2592529
40	0xbc61c19e	-0.013779072
41	0xbe0a8236	-0.13526234
42	0x3e0565e8	0.13027155
43	0xbd8f7e71	-0.07006539
44	0xbbcd07d1	-0.0062570353
45	0xbd64288e	-0.05570274
46	0x3b8ac523	0.0042349263
47	0xbdb19930	-0.08671796
48	0x3e5dd495	0.21663125
49	0xbeb58e6e	-0.35460228
50	0x3d7392bd	0.059466112
51	0xbe785f03	-0.24254994
52	0x3e1ecd2f	0.15507959
53	0xbde5a13f	-0.11212396
54	0xbdfc938d	-0.123328306
55	0xbe92aff2	-0.2864986
56	0xbdb5ed80	-0.0888319
57	0xbcc989b5	-0.024601797
58	0xbe10b69a	-0.14132157
59	0x3e34f935	0.1767319
60	0x3cce9d16	0.025221389
61	0xbe45c12c	-0.1931197
62	0x3e270919	0.16312064
63	0x3d0721fe	0.0329914
64	0xbe7f4c9e	-0.24931571
65	0x3e9db84d	0.30804673
66	0x3e04985d	0.12948747
67	0xbeb0f2ee	-0.3456034
68	0x3e63a741	0.22231771
69	0x3de11a85	0.10991386
70	0xbe7108dc	-0.23538536
71	0x3d9eb367	0.07749062
72	0x3e901e22	0.2814799
73	0x3e68c746	0.22732267
74	0x3ec7457e	0.38920206
75	0x3e727897	0.23678814
76	0xbe97a66f	-0.29619166
77	0x3e18c620	0.14919329
78	0xbe134be7	-0.14384423
79	0x3dd3d960	0.10344195
80	0x3e8e77dc	0.2782582
81	0xbdd7e259	-0.10541219
82	0x3d5d071e	0.053961866
83	0x3dd50bed	0.10402665
84	0xbe2ab688	-0.16671193
85	0x3ebb0f60	0.36535168
86	0xbd86f12b	-0.06588968
87	0xbd96d37f	-0.073645584
88	0xbe9b1bbb	-0.30294594
89	0x3e3a6180	0.18201256
90	0xbea39838	-0.3195207
91	0x3ea4af36	0.32164925
92	0xbe6ef6c6	-0.23336324
93	0xbc070a22	-0.008242162
94	0xbe7947be	-0.24343774
95	0x3ea67c98	0.32516932
96	0x3e7b89a1	0.2456422
97	0x3e522aa7	0.20524083
98	0x3e39adcc	0.18132704
99	0xbe2d04d4	-0.16896373
100	0xbe3d291f	-0.18472718
101	0xba028747	-0.00049792643
102	0x3cf56ce4	0.02995915
103	0x3e50ec94	0.20402747
104	0x3e6ad65b	0.22933333
105	0x3e636315	0.22205766
106	0x3eb79856	0.3585841
107	0x3d96c95e	0.073626265
108	0xbeb7923f	-0.35853764
109	0x3e89d268	0.2691834
110	0xbd93b5e1	-0.07212425
111	0x3d98e7c5	0.074660815
112	0xbd80baaa	-0.06285603
113	0xbd2a5d7e	-0.041593067
114	0x3da40774	0.08009234
115	0x3de3ae00	0.11117172
116	0xbe5c95ec	-0.21541566
117	0x3c72795c	0.014799442
118	0x3e0f1f16	0.13976702
119	0xbe0ea708	-0.13930905
120	0x3dc66085	0.096863784
121	0xbc937ce4	-0.018003888
122	0x3dd3cbea	0.10341628
123	0xbd80b5b1	-0.06284655
124	0xbd5156cf	-0.051108178
125	0x3dca41f9	0.098758645
126	0x3e910491	0.28323796
127	0xbe6c148e	-0.23054716
128	0xbd8c0def	-0.06838595
129	0xbe04b2a9	-0.12958778
130	0xbeb5941e	-0.35464567
131	0x3d7e2485	0.062046546
132	0xbd261195	-0.04054411
133	0xbe219a19	-0.1578144
134	0xbe50ec34	-0.20402604
135	0xbea435bc	-0.32072246
136	0x3e85ab5e	0.26107305
137	0x3e64c763	0.22341685
138	0x3e88e6f3	0.267387
139	0xbe855335	-0.26040044
140	0x3d00a0a4	0.0314032
141	0xbe1f043e	-0.15528962
142	0xbd9e5614	-0.07731262
143	0xbe0d0ea9	-0.13775124
144	0x3cd5cd46	0.026098859
145	0x3de6b754	0.11265436
146	0x3d45404c	0.04815702
147	0x3e263e48	0.16234696
148	0x3dfb5219	0.12271518
149	0x3d14757a	0.036244847
150	0xbdb1f2b5	-0.08688871
151	0xbcd4e8af	-0.025989858
152	0xbc4895fb	-0.012242789
153	0x3da7ab2a	0.08186944
154	0xbdc73a3b	-0.097279035
155	0x3ea1022e	0.31446975
156	0xbeba6d31	-0.3641143
157	0x3eb0de9f	0.34544846
158	0x3db8dd85	0.090266265
159	0x3d57809f	0.052612897
160	0x3c2b2dec	0.01044796
161	0xbe0a9a4a	-0.13535419
162	0xbe303b3d	-0.17210098
163	0xbe4cdebe	-0.20006844
164	0x3dd98d28	0.106226265
165	0xbdc40446	-0.095711276
166	0xbdba5c2a	-0.0909961
167	0xba662100	-0.0008778721
168	0xbdb26074	-0.08709803
169	0x3d0c28e9	0.034218702
170	0x3dafd59d	0.085856654
171	0xbe8263db	-0.2546681
172	0x3d0ae101	0.033905987
173	0x3de88e13	0.113552235
174	0xbb9b7dda	-0.0047452273
175	0xbd841790	-0.06449807
176	0xbd0f004e	-0.0349124
177	0x3ee4253f	0.44559667
178	0x3db5e27e	0.088810906
179	0x3e1acf98	0.15118253
180	0x3ebab42d	0.36465588
181	0xbe4e6077	-0.20153986
182	0xbd5e97d9	-0.054344032
183	0xbe4dc60b	-0.20095079
184	0xbe59a517	-0.21254383
185	0x3d4b73fd	0.049671162
186	0xbe286833	-0.16445999
187	0x3e1df266	0.15424499
188	0xbe9c371f	-0.30510804
189	0x3e916800	0.28399658
190	0xbd0fb1c4	-0.03508164
191	0x3e8afb82	0.2714501
192	0x3e079780	0.13241386
193	0xbb945a4c	-0.004527366
194	0x3e51a217	0.20471989
195	0x3c82b3d6	0.015954893
196	0xbe347897	-0.17624126
197	0xb98d05cf	-0.00026897943
198	0xbe04a877	-0.12954889
199	0xbd293ac6	-0.041315816
200	0x3dff5868	0.12468034
201	0xbb096d84	-0.0020969817
202	0xbd0fddc1	-0.03512359
203	0xbeb65471	-0.356113
204	0xbc8e05f7	-0.017336829
205	0x3caae8b9	0.020862924
206	0xbda1e210	-0.07904446
207	0x3d9e9839	0.07743878
208	0xbe7771b4	-0.24164468
209	0x3e66423f	0.22486208
210	0x3e4ca3f5	0.1998442
211	0x3dedaaae	0.1160482
212	0x3ddc7bdd	0.107658125
213	0x3ea347a2	0.3189059
214	0x3c2f912f	0.010715767
215	0x3c7e9fe1	0.015541048
216	0xbdcc23b0	-0.09967744
217	0x3de72fbb	0.11288401
218	0x3cf88077	0.030334694
219	0x3dbf7b13	0.093496464
220	0xbccdb5da	-0.025111128
221	0x3ea5c12b	0.32373938
222	0xbd5535a5	-0.052053113
223	0xbc8bcfda	-0.017066885
224	0xbe386eda	-0.18011037
225	0xbea5e85b	-0.32403836
226	0x3e2fe300	0.17176437
227	0xbd547aa4	-0.05187477
228	0xbd39de3f	-0.045377966
229	0xbd6b8857	-0.05750307
230	0x39118399	0.00013877302
231	0xbe10186f	-0.1407182
232	0x3e8f584a	0.27997047
233	0x3d6d9103	0.057999622
234	0x3eda867a	0.42680722
235	0x3e740b86	0.23832521
236	0x3e8ac42a	0.27102786
237	0xbecc5114	-0.39905608
238	0x3d756ea6	0.059919976
239	0xbcafce7c	-0.021460764
240	0xbe3d2ba7	-0.18473683
241	0x3e1a89aa	0.15091577
242	0x3d63c526	0.055607937
243	0xbbd70950	-0.0065623894
244	0xbe3b903d	-0.18316741
245	0xbe60c623	-0.21950583
246	0xbc6c83f2	-0.014435755
247	0xbe5dbe5a	-0.21654645
248	0x3e953390	0.29140902
249	0x3db9ca1b	0.09071752
250	0x3cd2ae2c	0.025717817
251	0xbe035949	-0.12827028
252	0xbe9593a8	-0.29214215
253	0xbec0f349	-0.37685612
254	0xbeda5b0d	-0.4264759
255	0xbd1e5219	-0.038652513

conv.3.bias f4 [16]
0	0xbc238ad0	-0.009981826
1	0xbcdf9089	-0.0272906
2	0x3c41f89a	0.011839056
3	0xbcaba32a	-0.020951826
4	0x3c1c1b26	0.009527957
5	0xbd2ea8fd	-0.04264163
6	0x3d148563	0.03626002
7	0xbc9eba97	-0.019376082
8	0xbc7f9080	-0.015598416
9	0xbcb75386	-0.022378694
10	0xbbd71176	-0.006563361
11	0xbd01c838	-0.031685084
12	0x3c933db0	0.01797375
13	0xbbe10e4c	-0.0068681594
14	0x3c1d82f1	0.009613738
15	0x3c5b8ec1	0.013400734

conv.5.weight f4 [16]
0	0x3f7d0fa0	0.98851967
1	0x3f80ae79	1.0053245
2	0x3f7a31b4	0.9773209
3	0x3f8064a8	1.0030718
4	0x3f81e827	1.0148972
5	0x3f811f0c	1.00876
6	0x3f802598	1.0011473
7	0x3f7c3171	0.9851294
8	0x3f7eb17d	0.99489576
9	0x3f7fe200	0.99954224
10	0x3f81f0e3	1.0151638
11	0x3f7dbcc0	0.99116135
12	0x3f810181	1.0078584
13	0x3f7fea81	0.999672
14	0x3f80c27b	1.0059351
15	0x3f802e37	1.0014104

conv.5.bias f4 [16]
0	0xbd0beee4	-0.03416337
1	0xbd457598	-0.04820785
2	0xbbaa4458	-0.0051961355
3	0x3c24a39c	0.010048773
4	0x3ccb3098	0.024803445
5	0xbca46b80	-0.020070791
6	0x3cc0d733	0.023540115
7	0x3c1c6e77	0.009547821
8	0xbcb5841a	-0.022157717
9	0xbb9f46fd	-0.0048607574
10	0xba2a27ad	-0.00064908975
11	0xbcfa4f5f	-0.030555425
12	0xbbebb3de	-0.0071930727
13	0xbc6fc0bc	-0.014633354
14	0xbcf968fe	-0.030445572
15	0xbbffa473	-0.0078015863

conv.5.running_mean f4 [16]
0	0x3ee5bca5	0.44870487
1	0x3f118685	0.56845886
2	0x3ee26e1d	0.44224635
3	0x3ecb8397	0.39748833
4	0x3f0b4961	0.5440884
5	0x3ebc028b	0.3672069
6	0x3efa6f42	0.48913008
7	0x3ec0fece	0.376944
8	0x3eff4ff3	0.49865684
9	0x3ef18665	0.47172847
10	0x3ecee99a	0.404126
11	0x3ec067d8	0.37579226
12	0x3f1eeaa6	0.62076795
13	0x3f66174b	0.8987929
14	0x3eed48d0	0.46344614
15	0x3ed62cfc	0.41831195

conv.5.running_var f4 [16]
0	0x3eec963c	0.4620837
1	0x3f87daf1	1.0613691
2	0x3f0241fc	0.50881934
3	0x3ec6dcd0	0.38840342
4	0x3f2945bf	0.6612205
5	0x3ed0c733	0.40776977
6	0x3f28c38e	0.6592339
7	0x3e9af1bd	0.30262557
8	0x3ef80a43	0.4844533
9	0x3ed76fd1	0.42077497
10	0x3eefec1b	0.46859822
11	0x3ef10514	0.47074187
12	0x3f6d6477	0.9273142
13	0x402512e7	2.5792787
14	0x3ef7a591	0.48368505
15	0x3e9e1008	0.30871606
